models/activity_classifier_nopose_v2.pth (torch, 570468 bytes, 6 tensors)

classifier.0.weight f4 [512, 17]
0	0xbde11809	-0.109909125
1	0xbe428a9b	-0.18998186
2	0x3d81d41f	0.06339287
3	0xbe4df9f1	-0.20114876
4	0x3e56d230	0.20978618
5	0x3e1f3096	0.15545878
6	0x3e0e9f4f	0.13927959
7	0x3cb50797	0.022098346
8	0xbccb433a	-0.02481233
9	0xbe12da3f	-0.14341067
10	0x3b2f24a1	0.0026724713
11	0x3aca0b6e	0.0015414783
12	0xbe990ba3	-0.2989169
13	0xbc2c2199	-0.010506057
14	0xbe415037	-0.18878256
15	0x3e9f2516	0.31082982
16	0xbdeda867	-0.11604386
17	0xbe037f5e	-0.12841555
18	0x3e701313	0.23444776
19	0xbe84c708	-0.259331
20	0xbe6b4a3d	-0.22977538
21	0x3e2439ef	0.16037725
22	0x3d67b353	0.0565675
23	0x3e0edb11	0.13950755
24	0x3e52f6de	0.20601985
25	0x3d8180b8	0.06323379
26	0xbdcc8f85	-0.09988312
27	0xbe8cf6bf	-0.27532002
28	0x3d22cc45	0.039745588
29	0xbda9cbbc	-0.082908124
30	0xbeb17f1c	-0.3466729
31	0xbdd61b80	-0.10454464
32	0x3d6963ce	0.056979947
33	0x3e98c58b	0.29838213
34	0x3e7b0f1b	0.24517481
35	0x3e3928f2	0.18082026
36	0xbe5ef200	-0.21772003
37	0xbdf0f862	-0.11766125
38	0xbd071d1b	-0.03298674
39	0xbdb7390a	-0.08946426
40	0x3b34a72d	0.0027565465
41	0x3d3a7ed1	0.045531098
42	0x3e5227bd	0.20522971
43	0x3e386bce	0.18009874
44	0xbc378db8	-0.011203222
45	0xbe41d2ee	-0.1892812
46	0xbe272abf	-0.163249
47	0x3dd04102	0.10168649
48	0x3e21cf27	0.15801679
49	0x3e02846e	0.1274583
50	0x3e21e183	0.15808682
51	0xbd41b8b8	-0.047295302
52	0xbe3e876b	-0.18606345
53	0xbcd7277a	-0.026263941
54	0x3e5f0c2a	0.21781984
55	0xbd8ae2d3	-0.067815445
56	0xbe320313	-0.17383985
57	0x3e36d47c	0.17854494
58	0x3e1e1582	0.15437892
59	0xbd944b69	-0.07240946
60	0x3d243cd5	0.040097076
61	0x3e2b33cf	0.16718982
62	0x3da43a85	0.08018974
63	0xbda6cb74	-0.08144274
64	0x3e0df731	0.13863827
65	0xbe2ebde5	-0.17064627
66	0xbd20fd8b	-0.039304297
67	0xbd4bdfd3	-0.049774002
68	0x3d2fbc39	0.042904112
69	0x3e2034d0	0.15645146
70	0xbe946673	-0.28984413
71	0xbe1fd340	-0.15607929
72	0x3e35ac85	0.17741592
73	0x3e0726a1	0.1319833
74	0x3d5fe484	0.05466129
75	0xbe717f33	-0.23583679
76	0xbe21247e	-0.15736577
77	0xbd313336	-0.04326173
78	0x3dd266a3	0.10273483
79	0x3c8f1cd7	0.017469807
80	0xbe487bc6	-0.19578466
81	0xbd407768	-0.046988875
82	0x3cf9a849	0.030475752
83	0x3e7107ab	0.23538081
84	0x3e9a2373	0.3010517
85	0x3a9fe293	0.0012198262
86	0xbe6ceaec	-0.2313649
87	0xbe8ce980	-0.27521896
88	0x3e1ed9bc	0.15512747
89	0xbe2539a8	-0.16135275
90	0x3de32897	0.11091726
91	0xbd8f84ad	-0.07007728
92	0xbdcf078e	-0.10108863
93	0xbe5e5e2b	-0.2171561
94	0x3d37725d	0.0447868
95	0xbe0423db	-0.12904303
96	0x3e348692	0.1762946
97	0xbe671230	-0.22565532
98	0x3dc2e2a7	0.09515887
99	0x3d92804d	0.07153378
100	0x3e40eede	0.1884112
101	0xbe1764e5	-0.14784582
102	0x3e40f34a	0.18842807
103	0x3d76dab4	0.060267165
104	0xbe7ce69d	-0.24697347
105	0xbdfda458	-0.12384862
106	0xbe85e29f	-0.2614946
107	0xbd1d473f	-0.038398024
108	0xbe195ba1	-0.1497636
109	0x3c8dc645	0.017306456
110	0xbe612dd7	-0.21990143
111	0xbe73ea48	-0.2381984
112	0xbc40236d	-0.011727196
113	0x3dcee70b	0.10102662
114	0xbe421c63	-0.18956141
115	0x3dcfab2f	0.101400726
116	0xbe6ba596	-0.23012385
117	0xbe3ab05e	-0.18231341
118	0xbdd79cd2	-0.10527958
119	0x3d94110e	0.072298154
120	0xbdda5da0	-0.10662389
121	0xbd86ad4b	-0.06576022
122	0x3cb43d28	0.022001818
123	0xbe676edc	-0.22600883
124	0x3e1eb623	0.15499167
125	0xbd1e3d4d	-0.03863268
126	0xbc60b585	-0.013715153
127	0x3e16010e	0.1464884
128	0x3e1ef30b	0.15522401
129	0x3c225518	0.009907983
130	0x3db2d8f3	0.08732786
131	0xbe72d1c8	-0.23712838
132	0x3de59a1e	0.11211036
133	0x3cc03322	0.023461882
134	0xbe6e7753	-0.23287706
135	0x3e7caaac	0.24674481
136	0x3e871e76	0.26390427
137	0xbe89105d	-0.26770297
138	0x3e841902	0.2580033
139	0x3d34d73a	0.04415057
140	0xbe123481	-0.14277841
141	0xbd14af08	-0.036299735
142	0x3e4fdd6d	0.20299311
143	0xbda9ec73	-0.08297052
144	0x3e41311c	0.1886639
145	0xbe22dcf3	-0.15904598
146	0xbdab9928	-0.083788216
147	0xbe597390	-0.2123549
148	0x3d9a8157	0.07544201
149	0x3875bbcc	5.858745e-05
150	0xbd5b086a	-0.05347482
151	0xbe87f75e	-0.26555914
152	0x3dd8ebf3	0.10591879
153	0xbe5e4154	-0.21704608
154	0xbe695575	-0.22786506
155	0xbdf637c4	-0.12022355
156	0x3cb4eb18	0.022084758
157	0x3e52ff8d	0.20605297
158	0xbdc66478	-0.09687132
159	0xbe2513fb	-0.16120903
160	0x3e3ad316	0.18244585
161	0x3dd7c4ee	0.10535608
162	0xbe45f661	-0.19332267
163	0x3e5ea52b	0.21742694
164	0x3e0c7f16	0.13720354
165	0xbe52adf2	-0.20574167
166	0x3e633648	0.22188675
167	0xbb28c98d	-0.00257549
168	0x3d398913	0.04529674
169	0xbbf78004	-0.0075531024
170	0xbd1bf48d	-0.03807502
171	0xbdaa35a0	-0.083110094
172	0x3e570291	0.20997073
173	0xbe69cffe	-0.22833249
174	0xbd6b9ac5	-0.057520647
175	0xbca7260f	-0.02040389
176	0x3e74d75b	0.23910277
177	0xbdf91ee2	-0.121640936
178	0xbd618afb	-0.055064183
179	0x3e16735a	0.1469244
180	0x3cf380bb	0.02972447
181	0x3c0ca15f	0.008583396
182	0x3e298164	0.16553265
183	0x3e8a7ab9	0.27046755
184	0x3e95dc68	0.2926972
185	0x3e2313c5	0.1592551
186	0xbd289e15	-0.041166384
187	0xbb1c31e1	-0.002383344
188	0xbe80f718	-0.25188518
189	0xbd98d52f	-0.074625365
190	0x3d2543bf	0.04034781
191	0x3dee0531	0.11622084
192	0x3e506099	0.20349349
193	0x3e7a5379	0.24445905
194	0xbe4eee98	-0.20208204
195	0x3e749ae0	0.23887205
196	0x3e56d34e	0.20979044
197	0xbe37b570	-0.17940307
198	0xbe11eb1d	-0.14249845
199	0x3e33c948	0.17557251
200	0x3e4dbaa7	0.20090733
201	0xbe252895	-0.16128762
202	0x3bc51b7a	0.0060152384
203	0xbe4ec992	-0.2019408
204	0x3d7eac90	0.062176287
205	0x3e3696e1	0.17830993
206	0x3e39794c	0.18112677
207	0x3de18a3e	0.11012696
208	0xbe7780cc	-0.24170226
209	0x3e42f31c	0.19038051
210	0xbd5dace5	-0.054119963
211	0xbdb29a48	-0.08720833
212	0x3dd3e7a9	0.1034692
213	0xbe28ee3f	-0.16497134
214	0x3e1fd0e9	0.15607037
215	0xbd589668	-0.052877814
216	0xbd949a3a	-0.07255979
217	0xbdd34bca	-0.1031719
218	0x3e2d5ec7	0.16930686
219	0x3e2eaa2c	0.17057103
220	0xbe24a2f7	-0.16077791
221	0x3bc222a7	0.005924541
222	0xbea6db49	-0.32589176
223	0x3d52b6a4	0.05144371
224	0x3e42475f	0.18972538
225	0xbe36a721	-0.17837192
226	0x3d3ccdd3	0.046094727
227	0xbe1e4add	-0.15458246
228	0x3e532517	0.20619617
229	0xbdeeba89	-0.116566725
230	0xbe03772a	-0.12838426
231	0xbd2ca43a	-0.042148806
232	0x3d8b3bdc	0.06798527
233	0x3e8c25ce	0.27372593
234	0xbde0baa1	-0.10973097
235	0xbd9eff90	-0.077635884
236	0x3d062b9a	0.032756425
237	0xbac8d863	-0.0015323277
238	0x3dc86f62	0.097868696
239	0x3e12aebc	0.14324468
240	0xbc13e3dd	-0.009026495
241	0x3e18c1cc	0.14917678
242	0x3e56f730	0.20992732
243	0xbd60ad1d	-0.054852594
244	0xbc2656be	-0.010152517
245	0x3d421f25	0.047392983
246	0x3ce0bcb8	0.027433738
247	0x3de73fcc	0.11291465
248	0x3e0991b4	0.13434488
249	0x3e2b83bc	0.16749471
250	0x3d78f1eb	0.060777586
251	0xbe394d95	-0.18096001
252	0xbdd0d1ca	-0.10196264
253	0xbda7f294	-0.08200565
254	0x3df211a6	0.118197724
255	0xbe4797ea	-0.19491544

classifier.0.bias f4 [512]
0	0x3db8d712	0.090253964
1	0xbe248169	-0.16064991
2	0xbe52f0e4	-0.20599705
3	0x3d432382	0.047641285
4	0x3dda443e	0.106575474
5	0xbdfcecbe	-0.123498425
6	0xbd5ffa61	-0.05468214
7	0x3c69dc93	0.01427378
8	0x3e53089f	0.20608757
9	0xbcbf25d7	-0.023333473
10	0xbe3e3339	-0.18574227
11	0xbd7c6105	-0.061615963
12	0xbc4f7a66	-0.012663459
13	0xbdaa09a1	-0.08302618
14	0x3e3e85a9	0.18605675
15	0xbe034025	-0.12817438
16	0xbe21ee6d	-0.15813608
17	0xbe0e9dde	-0.13927409
18	0x3e449020	0.19195604
19	0xbdbc418e	-0.09192191
20	0x3d957117	0.07296961
21	0x3d52368c	0.05132155
22	0xbce3ddd6	-0.02781574
23	0x3e4597ff	0.19296263
24	0xbe28cc1c	-0.16484112
25	0xbe3bc4cc	-0.18336791
26	0x3e2da920	0.16959047
27	0xbd93ddfd	-0.07220075
28	0x3e2b5284	0.16730696
29	0xbc83e6d5	-0.01610128
30	0xbe3d89a6	-0.1850954
31	0x3d442bae	0.04789322
32	0x3e53f285	0.20697983
33	0xbc3e0a22	-0.011599096
34	0x3dfccd37	0.12343829
35	0x3e898511	0.26859334
36	0xbd2c82a0	-0.04211676
37	0x3db76367	0.08954506
38	0x3da89036	0.08230631
39	0xbcef82fa	-0.02923726
40	0x3d430378	0.04761073
41	0x3e483d9d	0.19554754
42	0x3c692585	0.014230137
43	0xbe3d5358	-0.18488824
44	0x3d151862	0.036400206
45	0x3e4a35f6	0.19747147
46	0x3d8dfed7	0.069333725
47	0x3e8a91d5	0.27064386
48	0xbe1219c7	-0.14267646
49	0xbe56ec86	-0.20988664
50	0xbdfbe42f	-0.12299382
51	0x3e874c99	0.26425627
52	0x3c28ea77	0.010309807
53	0x3e6ee169	0.23328175
54	0x3d2ac509	0.041691814
55	0xbe5873c4	-0.21137911
56	0x3e866890	0.2625165
57	0xbe21aabb	-0.15787785
58	0x3e8b7509	0.27237728
59	0x3da1324b	0.07870921
60	0xbe6a6592	-0.22890308
61	0xbc534e0c	-0.012897026
62	0x3e4ef736	0.20211491
63	0xbe5521b9	-0.20813645
64	0x3d0ecf40	0.034865618
65	0xbe4cb3b8	-0.19990432
66	0xbe6f8feb	-0.23394744
67	0x3e0ca188	0.13733494
68	0x3ded49b6	0.11586325
69	0xbe51c01c	-0.2048344
70	0xbe40d91e	-0.18832824
71	0xbe77cd04	-0.24199301
72	0xbe0e3f37	-0.13891302
73	0x3c969fd1	0.018386753
74	0x3e09d2b4	0.13459283
75	0xbd2d1e64	-0.04226531
76	0xbd9a7a56	-0.07542865
77	0x3de6e2a0	0.11273694
78	0x3ccd2c35	0.025045494
79	0xbe398696	-0.18117747
80	0xbe499860	-0.19687033
81	0x3e13a1db	0.14417212
82	0xbc6b4779	-0.014360302
83	0x3e656136	0.22400364
84	0xbe7c066c	-0.24611825
85	0x3d4da0d7	0.050202217
86	0x3e0c6399	0.13709868
87	0x3d8000cb	0.06250151
88	0xbdbb5e68	-0.09148866
89	0xbd58b4cb	-0.052906793
90	0x3e2cd4f3	0.16878109
91	0x3e8660ab	0.26245627
92	0xbc12ca18	-0.008959316
93	0x3e808abb	0.25105843
94	0xbdc9a128	-0.09845191
95	0x3dcbc279	0.09949202
96	0x3d361098	0.04444942
97	0x3e6252a5	0.22101839
98	0x3dade52f	0.08490979
99	0x3e584ac6	0.21122274
100	0x3dc14cda	0.094384864
101	0xbe4df6fa	-0.20113745
102	0xbd4f49d5	-0.05060752
103	0xbd972f4b	-0.07382067
104	0xbdafa5f4	-0.08576575
105	0x3e0d939c	0.1382584
106	0x3e2338c6	0.15939626
107	0xbe332718	-0.17495382
108	0x3b191b5c	0.0023362255
109	0x3df76bd1	0.12081111
110	0x3d4ecbf4	0.050487474
111	0x3e272dc0	0.16326046
112	0x3e4b81a6	0.19873676
113	0x3d5d9af9	0.05410287
114	0x3da390b1	0.07986582
115	0xbe4d0994	-0.20023185
116	0x3da0d376	0.07852833
117	0xbe825ec5	-0.25462928
118	0xbb7af141	-0.0038290771
119	0xbcd1b0ad	-0.02559694
120	0xbe7863df	-0.24256848
121	0x3e21eee0	0.1581378
122	0xbe2c9b66	-0.16856155
123	0x3debe99b	0.11519166
124	0xbde941e8	-0.11389524
125	0xbdf939ef	-0.12169253
126	0xbd675ab0	-0.05648297
127	0xbe4cbaef	-0.19993185
128	0xbe34ee19	-0.17668952
129	0x3e834a58	0.25642657
130	0x3e77a850	0.241853
131	0xbe19c162	-0.15015176
132	0xbe36ccfd	-0.17851634
133	0xbd8f7b8a	-0.07005985
134	0x3e2a0a99	0.16605605
135	0xbe903b06	-0.2817003
136	0x3e65bffa	0.22436514
137	0x3e467fdf	0.19384716
138	0x3e3b9b9d	0.1832108
139	0xbdaf8122	-0.08569552
140	0xbe24472d	-0.16042776
141	0xbe509c33	-0.20372085
142	0x3d5c374e	0.05376368
143	0xbe4d97ba	-0.2007741
144	0xbdb252dc	-0.087072104
145	0xbde70e07	-0.112819724
146	0xbdc390ec	-0.09549126
147	0x3e4c9d7e	0.19981954
148	0x3d9c0612	0.07618345
149	0x3e3d8827	0.18508969
150	0xbd225270	-0.0396294
151	0xbe0dcbcf	-0.13847278
152	0x3de5df76	0.112242624
153	0x3e231827	0.15927182
154	0xbd494917	-0.04914197
155	0xbe10cc43	-0.1414042
156	0xbdcbf8f4	-0.099595934
157	0x3ddc1533	0.10746231
158	0xbdce3ea8	-0.100705445
159	0xbcdebcfb	-0.027189722
160	0x3e1de799	0.15420379
161	0x3e143e90	0.1447699
162	0x3dc0f41d	0.09421561
163	0x3c9e9698	0.019358918
164	0xbe3042cc	-0.17212981
165	0x3e622c01	0.22087099
166	0x3e57ddd3	0.21080713
167	0x3cad2bd7	0.021139069
168	0x3e725956	0.23666891
169	0x3d787578	0.060658902
170	0xbd284dde	-0.041089885
171	0x3e7181fe	0.23584744
172	0x3e39cd07	0.18144618
173	0x3b86ae8e	0.004110164
174	0xbe493448	-0.1964885
175	0x3e4bbaa8	0.19895422
176	0x3e82d54b	0.25553355
177	0x3e0ea83c	0.13931364
178	0x3e22280f	0.15835594
179	0xbe0cc9bc	-0.1374883
180	0x3bc99d7b	0.0061528063
181	0xbdbf32d7	-0.09335869
182	0x3db41270	0.08792579
183	0x3e88c7b2	0.26714855
184	0x3e190d4e	0.14946482
185	0xbe28f6d6	-0.1650041
186	0x3e2bdf63	0.16784434
187	0x3e7358ed	0.23764391
188	0xbe38fc8d	-0.1806509
189	0xbc99e7f3	-0.01878736
190	0x3dcebbd2	0.10094418
191	0x3e092fa9	0.13397087
192	0x3d5dad1d	0.05412017
193	0xbd7c2210	-0.061555922
194	0xbd87756b	-0.066141926
195	0xbd98fc1c	-0.07469961
196	0x3e568e36	0.20952687
197	0xbe20a720	-0.15688753
198	0xbe37164b	-0.17879598
199	0xbe21ebee	-0.15812656
200	0xbdccf74e	-0.10008107
201	0xbe1a1ec4	-0.15050799
202	0xbe300350	-0.17188764
203	0xbe2fe499	-0.17177047
204	0x3d057c35	0.032589156
205	0xbcaddc65	-0.021223256
206	0x3e31a58b	0.17348306
207	0xbe4d197a	-0.2002925
208	0x3e1b3bea	0.15159574
209	0x3dc5e08d	0.0966197
210	0x3d546c1e	0.05186092
211	0x3e5c74fe	0.21529004
212	0xbe66af23	-0.22527747
213	0xbdad0d57	-0.0844981
214	0x3e0b69ff	0.13614653
215	0x3e349e02	0.176384
216	0x3e6f6c31	0.23381115
217	0xbe2c8433	-0.16847305
218	0x3d3b5725	0.045737404
219	0xbe654744	-0.22390467
220	0x3e5cf6ba	0.21578494
221	0x3a75f8da	0.000938309
222	0x3bcbe65a	0.0062225284
223	0x3d67ab34	0.056559756
224	0x3e2c452f	0.16823266
225	0xbdf0cba0	-0.117575884
226	0x3e69b56c	0.22823113
227	0x3e6f6c9f	0.2338128
228	0xbcbbe2e8	-0.022935346
229	0xbd61a995	-0.055093367
230	0xbdc3af9e	-0.09554981
231	0x3d213810	0.039360106
232	0x3d096f29	0.033553276
233	0x3e51cc17	0.2048801
234	0xbe2f4d87	-0.17119418
235	0xbe85fec5	-0.26170936
236	0xbb9d1712	-0.00479401
237	0xbe13e7a6	-0.14443836
238	0x3c3ad8b0	0.011404201
239	0xbe28c2f1	-0.16480614
240	0xbe5ca753	-0.21548204
241	0x3dfec9e4	0.12440851
242	0xbe480381	-0.19532587
243	0x3db7565d	0.08952019
244	0x3d6aa862	0.05728949
245	0x3dd8f208	0.10593039
246	0xbd19e05a	-0.037567474
247	0xbdd4e1eb	-0.10394653
248	0xbd9f4800	-0.07777405
249	0xbda907bf	-0.082534306
250	0x3d7839a6	0.060601853
251	0xbe144069	-0.14477696
252	0x3d472bf5	0.048625905
253	0xbdd0d92f	-0.101976745
254	0xbe1d224e	-0.15345117
255	0x3dae936c	0.08524212

classifier.3.weight f4 [256, 512]
0	0xbd301895	-0.042992193
1	0x3980a196	0.00024534453
2	0xbc61d0ec	-0.013782721
3	0x3b822d69	0.0039726985
4	0xbd6c0243	-0.057619344
5	0x3c3ae55c	0.011407223
6	0x3d2e9972	0.042626806
7	0x3c3c864f	0.011506631
8	0x3d47ca79	0.048777077
9	0x3ca7ceb3	0.020484304
10	0x3d7227c8	0.05911997
11	0xbd2d3958	-0.042291015
12	0x3d065524	0.03279604
13	0xbd0f44e6	-0.034977816
14	0x3c9fe6d8	0.019519255
15	0x3bb9f4a0	0.0056749135
16	0xbaec333d	-0.0018020641
17	0x3be64f3c	0.0070284884
18	0xbc86d177	-0.016457302
19	0x3c5f62b0	0.013634369
20	0x3b97b12a	0.004629274
21	0xbbac5d63	-0.005260156
22	0xbb74eebe	-0.0037373747
23	0xbc5528fe	-0.013010262
24	0x3dbf4cb0	0.09340799
25	0x3cb33e73	0.021880364
26	0x3bc76bca	0.0060858475
27	0xbaeb5ffa	-0.001795768
28	0xbbbd7263	-0.005781458
29	0x3d0a5e52	0.033781357
30	0x3cdc7195	0.026909629
31	0x3c7a3d3e	0.01527339
32	0x3cebfda4	0.028807469
33	0xbcee4b46	-0.029088628
34	0xbb2f3c14	-0.002673869
35	0x3c87b777	0.016566975
36	0xbd186db5	-0.037214
37	0x3d4d278d	0.050086547
38	0x3cc65ea9	0.02421506
39	0x3a85a3cd	0.0010195911
40	0x3ce9e7b2	0.028552864
41	0x3d026b35	0.03184052
42	0x3aeaac06	0.001790405
43	0x3bc7c6dc	0.006096704
44	0x3c62acca	0.013835141
45	0xbbff8aba	-0.00779852
46	0x3cb8eddb	0.022574356
47	0x3b71ca58	0.0036894288
48	0xbcf7911c	-0.03022056
49	0xbd4126f0	-0.047156274
50	0xbccf7465	-0.025324056
51	0x3d60e61c	0.05490695
52	0x3d0bd233	0.03413601
53	0x3d84e8a0	0.06489682
54	0xbd393e45	-0.0452254
55	0x3c130e1d	0.008975533
56	0xbd2cc4b9	-0.042179797
57	0x3d0a56b4	0.033774093
58	0x3bd965ac	0.0066344347
59	0x3cd561a0	0.026047528
60	0x3c8525fe	0.016253468
61	0x3d08e250	0.033418953
62	0x3d06d577	0.03291842
63	0x3d17f609	0.03709987
64	0x3b6940b2	0.003559154
65	0x3bede958	0.0072604828
66	0xba8e8542	-0.0010873454
67	0xbc9fd15f	-0.019509016
68	0xbc9b57ca	-0.01896276
69	0x3d99a483	0.07502081
70	0xbcb1697e	-0.021656748
71	0xbd1138fb	-0.03545473
72	0x3c82fa1a	0.015988398
73	0x3d0af9e6	0.033929728
74	0xbb5a0955	-0.0033269722
75	0x3cdae7b5	0.026721815
76	0x3d28f41f	0.041248437
77	0xbb816002	-0.0039482126
78	0x3b344662	0.0027507772
79	0x3dacc495	0.084359325
80	0xbd0ce3c5	-0.034396905
81	0xbce80aea	-0.028325517
82	0xbd2bbdb9	-0.04192898
83	0x3d38b710	0.045096457
84	0xbd407bce	-0.04699307
85	0x3d3611c2	0.04445053
86	0x3d4bdffe	0.049774162
87	0x3c7b1f42	0.015327277
88	0x3ccfcb08	0.025365368
89	0xbcca5662	-0.024699394
90	0x3b6558b2	0.0034995493
91	0x3d4071b5	0.04698344
92	0xbc9898bd	-0.018627519
93	0xbd31a23f	-0.04336762
94	0x3ca82178	0.020523772
95	0x3d001ee8	0.031279474
96	0xbcf2aace	-0.029622462
97	0x3d610097	0.054932203
98	0xbc4c27cf	-0.012460663
99	0x3dac8494	0.08423725
100	0x3ce3e2d6	0.027818125
101	0x3d79bc22	0.060970433
102	0xbd140ef3	-0.03614707
103	0xbd07bdbf	-0.03313994
104	0x3d043e11	0.032285754
105	0xbd2d28a8	-0.0422751
106	0xbd22e0dd	-0.039765228
107	0xbca2064f	-0.019778399
108	0xbbf1cfb4	-0.0073794965
109	0xbb8f1826	-0.0043668924
110	0x3c980840	0.018558621
111	0x3c8800e1	0.016601982
112	0x3c921b23	0.017835205
113	0xbca42345	-0.02003635
114	0x3d0592e4	0.03261079
115	0xbcf3d827	-0.029766155
116	0xbd00dc7e	-0.031460278
117	0x3bbbae3c	0.0057275575
118	0x3c4ffee9	0.012695053
119	0x3ccec7c9	0.02524175
120	0xbd729220	-0.059221387
121	0x3c45cd48	0.012072869
122	0x3bf4f0b1	0.0074749817
123	0xbd0a491c	-0.03376113
124	0x3cc079d8	0.0234956
125	0xbd4cc83e	-0.049995653
126	0x3bff5bf2	0.007792943
127	0x3c932edf	0.017966686
128	0x3b6d88b9	0.0036244823
129	0x3d770f7b	0.060317498
130	0x3c5328a6	0.012888109
131	0xbd2dced0	-0.04243356
132	0x3c6b6f1b	0.014369751
133	0x3ce53865	0.027980993
134	0xbb5e6a82	-0.0033937995
135	0x3b45e5bb	0.0030196744
136	0x3d6862b0	0.05673474
137	0x3c31d32d	0.010853571
138	0xbcd891c4	-0.026436694
139	0xbcb922ba	-0.022599567
140	0xbd118e67	-0.035536196
141	0x3b3e87a0	0.0029072538
142	0xbd31eb25	-0.043437142
143	0xbcc35830	-0.023845762
144	0x3dcb179a	0.09916611
145	0xbb920859	-0.0044565615
146	0xbd27fc82	-0.041012295
147	0xbd1ab479	-0.03776977
148	0xbbe1c2ac	-0.006889662
149	0x3d1d5636	0.038412295
150	0x3c978579	0.018496262
151	0xbd1f0213	-0.038820338
152	0x3cf23c44	0.029569753
153	0x3d2b1cd9	0.04177556
154	0x3da89082	0.08230688
155	0xbbef8093	-0.0073090284
156	0x3d15f7a1	0.03661311
157	0x3cb3119a	0.021858979
158	0xbc8f7339	-0.017510997
159	0xbc85a8db	-0.016315868
160	0xbd21ddd0	-0.039518178
161	0xbcdf0df5	-0.027228335
162	0xbbf37e7d	-0.00743085
163	0xbcecba7e	-0.02889752
164	0xbc90073c	-0.017581575
165	0xbb33e0f5	-0.0027447317
166	0x3ced4f51	0.028968485
167	0x3a1ba168	0.0005936832
168	0x3d6047cf	0.054755982
169	0x3c9413e4	0.01807589
170	0x3ce49519	0.027903127
171	0x3d897a0f	0.06712734
172	0xbc9443ec	-0.018098794
173	0xbc7c4570	-0.015397415
174	0x3c95cdfb	0.018286696
175	0xbce6b8ff	-0.028164385
176	0x3da5b5ef	0.08091342
177	0xbb635060	-0.0034685358
178	0x3c6dac4c	0.014506411
179	0x3b954aa3	0.0045560165
180	0xbd1497da	-0.03627763
181	0xbd15e229	-0.036592636
182	0xbc86e3dd	-0.016466076
183	0x3c37905a	0.01120385
184	0x3d60671f	0.054785844
185	0xbc913ecf	-0.017730145
186	0xbc261e4d	-0.01013906
187	0x3befaabe	0.007314055
188	0x3cda864d	0.026675368
189	0x3c9cc074	0.019134738
190	0xbc8729fe	-0.016499516
191	0x3ae4ad16	0.0017446603
192	0x3da6cf8f	0.081450574
193	0xbc701cd6	-0.0146553125
194	0xbbda5b09	-0.0066636843
195	0xbd254074	-0.04034467
196	0xbc87805c	-0.016540699
197	0xbcc1d06a	-0.02365895
198	0xbc6df4e5	-0.014523719
199	0xbaca9217	-0.0015454915
200	0x3d2f5a74	0.042810872
201	0xbd381757	-0.044944134
202	0x3d42adf3	0.047529172
203	0x3a889b98	0.0010422347
204	0xbc59ca3d	-0.013292846
205	0xbd068262	-0.032839186
206	0xbd2cae7e	-0.042158596
207	0x3c57e0a4	0.013176117
208	0x3d3b823b	0.045778494
209	0xbd715b46	-0.058924936
210	0xbd00d846	-0.031456254
211	0x3c9ca2c2	0.019120578
212	0x3cc9ca92	0.024632726
213	0x3cc48403	0.02398873
214	0x3c6f10ac	0.014591377
215	0x3d6fea4f	0.058573063
216	0xbcfd3c74	-0.030912615
217	0xbd21dcc0	-0.039517164
218	0x3c15ca81	0.009142519
219	0xbc99678c	-0.018726133
220	0x3c29533a	0.010334784
221	0x3d8718d6	0.06596534
222	0x3ba6868c	0.005081957
223	0xbc4cfb0b	-0.012511025
224	0xbcac0749	-0.020999568
225	0xbd3b30e8	-0.045700938
226	0x3db821b6	0.08990805
227	0x3bb63e97	0.0055616605
228	0x3d15b5c8	0.036550313
229	0xbc2bbad4	-0.010481555
230	0xbd808d92	-0.062770024
231	0xbcb0cfdc	-0.02158349
232	0x3d038a31	0.03211421
233	0xbcb1117c	-0.021614783
234	0xbc6bb817	-0.014387152
235	0x3c8e68c1	0.017383935
236	0x3c9be96b	0.0190322
237	0xbaf69c8b	-0.0018814964
238	0xbd40c61f	-0.047063943
239	0xbc90927b	-0.017647972
240	0x3c6369da	0.013880217
241	0x3d818c84	0.06325629
242	0xbc57da2e	-0.013174577
243	0x3c6f40f9	0.014602893
244	0x3c955118	0.018227145
245	0x3ca9ad10	0.020712405
246	0x3c032b14	0.008005876
247	0xbd27f1e1	-0.041002158
248	0xbd369762	-0.044577964
249	0xbc642e38	-0.013927035
250	0x3d922fcb	0.07138022
251	0xbccc7d56	-0.024962109
252	0x3c459abd	0.012060818
253	0xbba4a589	-0.005024616
254	0xbc81fb04	-0.015866764
255	0xbd5c1cb4	-0.05373831

classifier.3.bias f4 [256]
0	0x3d96eaaf	0.07368981
1	0x3c924b65	0.017858217
2	0x3d803378	0.06259817
3	0xbc51904c	-0.012790751
4	0xbc6a058b	-0.014283548
5	0x3d7ee246	0.06222751
6	0x3d611a25	0.054956574
7	0xbd806b74	-0.06270495
8	0x3be615f5	0.0070216605
9	0xbd9313e1	-0.07181526
10	0xbb9075aa	-0.004408558
11	0x3cd63a26	0.026150774
12	0x3da2173c	0.07914588
13	0x3d7a973b	0.06117938
14	0xbca1fb79	-0.019773232
15	0x3d133108	0.03593543
16	0x3c148cdf	0.009066789
17	0x3d361449	0.04445294
18	0xbd3c4490	-0.045963824
19	0x3d2dc7c7	0.04242685
20	0x3c5cb3a7	0.013470567
21	0x3b77e738	0.0037827026
22	0xbc8e5a7b	-0.017377129
23	0x3d194e09	0.037427936
24	0x3cf92d7f	0.030417202
25	0xbc39a906	-0.011331802
26	0x3d8440ab	0.06457647
27	0x3cb53149	0.022118228
28	0x3da34fd6	0.07974212
29	0xbab3acd4	-0.0013708123
30	0x3c867006	0.016410839
31	0xbccec026	-0.025238108
32	0x3daa1029	0.083038636
33	0x3d181e03	0.037137996
34	0xbbcac17b	-0.0061876155
35	0x3d2bae34	0.04191418
36	0x3d5b7daa	0.05358664
37	0x3d9ebae7	0.077504925
38	0x3d276f6e	0.040877752
39	0xbbccbb09	-0.0062478823
40	0x3aade949	0.0013268377
41	0x3d1ed1ba	0.03877423
42	0xbc2a4ff8	-0.010395043
43	0xbc9a1771	-0.018810006
44	0xbd3fb977	-0.046807732
45	0x3c313368	0.010815479
46	0x3d708b27	0.058726456
47	0xbd0a6f3c	-0.033797488
48	0xbc336bf3	-0.01095103
49	0x3b846f89	0.0040416163
50	0x3d029877	0.031883683
51	0xbb94cd52	-0.0045410777
52	0x3d441626	0.047872685
53	0x3d23f342	0.04002691
54	0xbc5bbdcc	-0.01341195
55	0xbcdd7e50	-0.02703777
56	0x3d2501b5	0.04028483
57	0x3d378837	0.04480764
58	0x3da7a2fa	0.08185382
59	0x3cf5da80	0.030011415
60	0x3c6e7f63	0.014556739
61	0xbc5f2088	-0.013618596
62	0xbd60573a	-0.054770686
63	0x3d470c47	0.048595693
64	0x3d7e774d	0.062125493
65	0x3d80b24b	0.06284007
66	0x3bcc062c	0.0062263217
67	0xbc8cfa33	-0.017209148
68	0x3d0de38f	0.034640845
69	0xbcc4703c	-0.023979299
70	0x3cad91b2	0.021187637
71	0x3d23b326	0.03996577
72	0xbd0421bc	-0.032258734
73	0xbc7e1fb0	-0.015510485
74	0x3c95e343	0.018296843
75	0xbcd7cb90	-0.026342183
76	0xbab65022	-0.001390938
77	0xbd3792d1	-0.04481775
78	0x3d5d4bc6	0.05402734
79	0x3cfb66b1	0.030688616
80	0x3bf80e82	0.007570089
81	0x3d11543e	0.03548073
82	0x3cfd7ed9	0.030944275
83	0xbb7ce448	-0.0038588215
84	0x3d2d8b33	0.04236908
85	0xbd3947e3	-0.045234572
86	0xbd2dae40	-0.042402506
87	0xbcc6b6fe	-0.02425718
88	0xbd86bfac	-0.06579527
89	0x3cf579af	0.02996525
90	0xbc4ea333	-0.012612152
91	0x3d3a1e92	0.04543931
92	0x3d60d349	0.054888997
93	0x3d7ca449	0.061680112
94	0x3ca7e26b	0.020493707
95	0x3c961cf5	0.018324355
96	0x3abe37fe	0.0014512537
97	0xba925224	-0.0011163396
98	0x3c3d6d98	0.011561774
99	0x3c679cdb	0.014136518
100	0x3cfd7b85	0.030942688
101	0xbc9afb1a	-0.018918563
102	0xbd2cf147	-0.042222288
103	0x3d06b8f2	0.03289122
104	0x3cc84793	0.024448192
105	0x3cec3ff1	0.028839083
106	0x3cb77ca6	0.022398304
107	0xbc81d56a	-0.015848834
108	0xba810e3c	-0.0009846161
109	0xbd18a3b7	-0.037265506
110	0xba340417	-0.00068670645
111	0x3c5b6841	0.013391555
112	0xbcd0f897	-0.025509162
113	0x3c92eb7d	0.017934555
114	0x3d134ca7	0.035961773
115	0x3cb59ab7	0.0221685
116	0x3d833d9e	0.06408237
117	0xbb8ecfd9	-0.0043582735
118	0xbc9a347f	-0.01882386
119	0x3d144ffb	0.036209088
120	0x3cce7f4b	0.025207182
121	0xbb1a85ab	-0.0023578207
122	0xbc8e40c8	-0.017364874
123	0x3b4de208	0.0031415243
124	0x3d2bc751	0.04193813
125	0x3d791e7a	0.06082008
126	0xbd1decbf	-0.038555857
127	0xbd042873	-0.032265138
128	0x3b10b29a	0.002207911
129	0xbd328b5a	-0.043589927
130	0x3d4e0df2	0.050306268
131	0xbd363b55	-0.044490177
132	0x3c849aea	0.01618715
133	0x3d6d401d	0.05792247
134	0xbd0a1584	-0.033711925
135	0x3b86a5df	0.004109129
136	0xbccbad22	-0.02486283
137	0xbca45059	-0.020057844
138	0x3d4182f6	0.047244035
139	0x3c94da0d	0.018170381
140	0x3c7f0e9c	0.015567448
141	0xbc2d0caf	-0.010562106
142	0x3d7ad1e7	0.061235335
143	0xbb8cae06	-0.004293206
144	0xbbb119ab	-0.005404671
145	0xbd90058a	-0.070323065
146	0x3d1c6219	0.03817949
147	0x3c04a6c6	0.0080964025
148	0xbcc9a0e6	-0.024612855
149	0x3c286975	0.010279049
150	0xbce1ca97	-0.027562423
151	0x3c5df681	0.013547541
152	0x3cb9acdd	0.022665435
153	0xbd2a198d	-0.041528273
154	0xbd63be8d	-0.055601645
155	0xbd128f8d	-0.035781432
156	0x3b56ab3d	0.0032755875
157	0x3b1d28f4	0.0023980709
158	0xbbfd921d	-0.0077383653
159	0xbbb238f2	-0.0054389173
160	0xbcb69d48	-0.022291794
161	0xba1a3aad	-0.0005883377
162	0xbb83cb5e	-0.004022046
163	0x3cb3e3e6	0.021959256
164	0xbbbecd74	-0.0058228318
165	0xba7c7e22	-0.00096318324
166	0xbd5b474c	-0.05353479
167	0x3d24a426	0.040195607
168	0x3c92d4ee	0.017923798
169	0x3d0f886a	0.035042204
170	0x3a87794d	0.0010335833
171	0x3cfbbf07	0.030730737
172	0xbd28ee11	-0.041242663
173	0x3cf294e7	0.029612018
174	0xbcaaff74	-0.020873763
175	0x3d4a5906	0.049401306
176	0x3a22877f	0.00062
177	0x3d200f95	0.03907736
178	0x3d401daf	0.04690331
179	0xbca32f6b	-0.019920072
180	0xbc242ed7	-0.010020933
181	0x3d4fcaa6	0.05073037
182	0xbc59db2d	-0.0132968845
183	0xbd056f0e	-0.032576613
184	0xbccfb759	-0.025355982
185	0x3d7a2d3d	0.0610783
186	0x3caf3178	0.021385893
187	0x3cd96d56	0.026541393
188	0xbc2c6408	-0.010521896
189	0xba863051	-0.0010237788
190	0x3d36b23f	0.044603582
191	0x3c274801	0.010210038
192	0x3c8e5a0a	0.017376918
193	0xba859595	-0.0010191674
194	0xbc80769f	-0.015681563
195	0x3c9a9731	0.018870922
196	0x3d633dcb	0.055478852
197	0x3cd77cca	0.026304621
198	0xbc6fd7df	-0.01463887
199	0xbc0df581	-0.00866449
200	0xbd410349	-0.047122274
201	0xbc91a406	-0.017778408
202	0xbc8062e3	-0.015672153
203	0xbb459a1f	-0.0030151678
204	0x3b984c53	0.0046477704
205	0xbba21b16	-0.0049470766
206	0xbd4051d4	-0.046953037
207	0xbd020b67	-0.031749155
208	0xbd79f3ec	-0.061023638
209	0x3ccc9e45	0.024977813
210	0x3d2d0c4d	0.04224806
211	0x3d13f748	0.036124498
212	0x3c87c039	0.016571151
213	0x3c1d51aa	0.00960199
214	0x3c0b94c8	0.008519359
215	0x3cddaabd	0.027058953
216	0xbc146f32	-0.009059714
217	0xbd03d35e	-0.032183997
218	0xbcbb252e	-0.022844877
219	0xbcdf9678	-0.027293429
220	0x3d6874e9	0.05675212
221	0xbc7e787d	-0.015531656
222	0x3c8f39e6	0.017483663
223	0xbb8bee45	-0.0042703473
224	0x3bfa66ff	0.0076416726
225	0xbc7d153d	-0.015446958
226	0x3cb33b1b	0.02187877
227	0x3c4e51b0	0.012592718
228	0xbd244da2	-0.0401131
229	0x3d370f9d	0.044692624
230	0x3c80fcf7	0.015745623
231	0xbb187a93	-0.002326642
232	0xbc380b1e	-0.011233119
233	0x3b3954b5	0.002827925
234	0xbc9b73d2	-0.018976126
235	0xbd6343d1	-0.055484597
236	0x3d07c700	0.033148766
237	0xbc9a4d9c	-0.018835835
238	0x3be4089c	0.006959034
239	0xbbc8233d	-0.0061077164
240	0x3d3c9f95	0.046050627
241	0x3bd28670	0.0064247176
242	0xbd41c6c0	-0.047308683
243	0xbd119bc2	-0.035548933
244	0x3cf988bd	0.03046071
245	0xbcdae14f	-0.026718764
246	0x3d3a151c	0.045430288
247	0x3ce42c1a	0.02785306
248	0x3d2ccb68	0.04218617
249	0x3d32bab1	0.043635074
250	0xbbe38343	-0.006943138
251	0xbd07d4cb	-0.03316192
252	0x3c8421ce	0.0161294
253	0x3d09cf1d	0.033644784
254	0xbbae3d96	-0.0053174
255	0x3d29251c	0.041295156

classifier.6.weight f4 [5, 256]
0	0x3b1f8679	0.0024341627
1	0xbd28adac	-0.04118125
2	0x3c689087	0.014194614
3	0xbddb055a	-0.1069438
4	0x3cc9dc4e	0.024641182
5	0xbdc82b0a	-0.09773834
6	0xbc84968e	-0.016185071
7	0xbc89fb43	-0.016843444
8	0x3d0a1457	0.033710804
9	0xbd4de84e	-0.05027037
10	0x3c7a56a4	0.015279446
11	0xbd35b865	-0.044365305
12	0x3c171531	0.009221361
13	0x3c0fd28a	0.008778224
14	0x3d48c6d0	0.049017727
15	0x3c8d5b69	0.017255502
16	0xbd2768bf	-0.040871378
17	0x3cebd924	0.028790064
18	0xbc64936e	-0.013951166
19	0x3d0bbb5b	0.034114223
20	0xbcad4be7	-0.021154357
21	0xbd1b3a75	-0.037897546
22	0xbd277ff3	-0.040893506
23	0xbd46236f	-0.048373636
24	0xbc174a05	-0.009233956
25	0x3cd23060	0.025657833
26	0xbd8b508f	-0.06802475
27	0x3d5c3038	0.053756922
28	0xbc2f5f55	-0.010703881
29	0xbd7961eb	-0.060884397
30	0xbd1a76e6	-0.037711047
31	0xbd6dea58	-0.058084816
32	0x3bd599ca	0.006518577
33	0xbd4649b2	-0.048410125
34	0x3d8ee694	0.06977573
35	0xbca3aedb	-0.019980839
36	0x3d6fad8d	0.05851512
37	0x3c7edd15	0.01555564
38	0xbc812e15	-0.015769044
39	0xbba67f2a	-0.005081077
40	0xbd087c6a	-0.033321775
41	0x3d10b8f1	0.035332624
42	0x3d288f4c	0.041152284
43	0x3dc52b34	0.09627381
44	0xbd57c9cd	-0.052682687
45	0xbd7411f1	-0.059587423
46	0xbdb2072a	-0.08692773
47	0x3cf54701	0.029941084
48	0x3cd2b58c	0.025721334
49	0x3d18dc80	0.03731966
50	0xbc9d84bb	-0.01922833
51	0xbd530ee7	-0.051527884
52	0x3ca808b7	0.020511968
53	0x3cfe230f	0.031022577
54	0xbd437c67	-0.04772606
55	0x3c81c18b	0.015839359
56	0x3d8a193d	0.06743095
57	0x3d5cecab	0.05393664
58	0xbd627541	-0.055287603
59	0x3d4571e6	0.048204325
60	0xbd18f711	-0.037344996
61	0x3d868d8e	0.06569968
62	0xbdb54782	-0.0885153
63	0x3ca85c1b	0.020551732
64	0xbcd57a4f	-0.026059298
65	0x3cac9b4a	0.021070141
66	0xbc45a38c	-0.012062918
67	0x3d2d0855	0.042244274
68	0x3d317852	0.043327637
69	0x3cf683bf	0.030092118
70	0x3d4b82a7	0.049685147
71	0xbc6e2453	-0.014535028
72	0x3b8552d3	0.0040687113
73	0xbd084869	-0.03327218
74	0xbc78827c	-0.015167829
75	0xbd02bc60	-0.03191793
76	0xbd662b6d	-0.056193758
77	0x3d5dc5d0	0.054143727
78	0x3d9b764e	0.07590924
79	0x3bd85a69	0.0066025746
80	0xbdd17b96	-0.1022865
81	0x3cababb9	0.020955907
82	0x3d066497	0.032810774
83	0xbcb09b11	-0.021558316
84	0x3d50798e	0.050897174
85	0xbdad1235	-0.08450738
86	0x3cd576e3	0.026057666
87	0x3c66205c	0.014045801
88	0x3a3fd84c	0.00073183025
89	0xbd0a5ecf	-0.033781823
90	0x3d34fea6	0.044188164
91	0x3b586259	0.0033017604
92	0xbd369a5b	-0.0445808
93	0x3ce1fe4c	0.027587079
94	0x3d655125	0.05598559
95	0xbd3436e9	-0.04399768
96	0x3d7fa7dd	0.062415946
97	0xbd23bdbd	-0.03997587
98	0xbd64135e	-0.055682532
99	0x3cb57044	0.022148259
100	0x3d6e0b1a	0.058116056
101	0xbd655b88	-0.055995494
102	0xbd2f168f	-0.042746123
103	0xbd3e41e4	-0.046449557
104	0xbd3dff81	-0.046386246
105	0xbd0f4921	-0.03498185
106	0x3c59f924	0.013304029
107	0xbda2dc0c	-0.07952127
108	0xbc14c2e1	-0.009079666
109	0x3cbd30de	0.02309459
110	0x3d5b862d	0.053594757
111	0xbc94095d	-0.018070871
112	0xbccb8b6a	-0.024846751
113	0xbd19dfff	-0.037567135
114	0x3d14bc44	0.036312357
115	0xbd342646	-0.043981813
116	0xbc6738e4	-0.014112685
117	0xbcf245a3	-0.029574221
118	0xbd4a3002	-0.04936219
119	0x3d5eb646	0.05437305
120	0x3d4e7451	0.050403897
121	0x3d20f85b	0.03929935
122	0xbc9d9f0c	-0.019240879
123	0xbd25bda5	-0.040464062
124	0x3d445c75	0.047939736
125	0xbc1fef6c	-0.0097616725
126	0xbd18d98f	-0.037316855
127	0xbd82b004	-0.063812286
128	0x3d2d09b1	0.04224557
129	0xbcceec1a	-0.025259066
130	0x3c819dd9	0.015822338
131	0x3b88d373	0.0041755973
132	0xbd12457a	-0.03571079
133	0xbdd90e98	-0.10598487
134	0x3cfdcc71	0.030981274
135	0x3d7e0922	0.06202043
136	0x3cf0b86a	0.02938481
137	0xbd2f5263	-0.04280318
138	0x3ccf0881	0.02527261
139	0xbc470474	-0.012147058
140	0x3d045d81	0.032315735
141	0xbd44a760	-0.048011184
142	0x3bdff7ef	0.006834976
143	0x3d86576a	0.06559642
144	0x3cd988de	0.026554521
145	0xbc02149f	-0.007939487
146	0x3dd7774e	0.105208024
147	0xbbc27496	-0.0059343083
148	0x3c9781c8	0.018494502
149	0x3a05e86a	0.000510818
150	0xbd15e526	-0.036595486
151	0xbab9ac38	-0.0014165705
152	0xbcb386f8	-0.021914944
153	0xbd3029d1	-0.04300863
154	0xbb560d43	-0.0032661713
155	0xbd44a127	-0.04800525
156	0x3cffc5cf	0.031222252
157	0x3cf2d8ed	0.029644454
158	0x3cf282ab	0.029603323
159	0xbe06e203	-0.13172154
160	0x3d35c4c8	0.04437712
161	0xbd5c51d2	-0.053788967
162	0x3cbba359	0.022905039
163	0xbc7e4f65	-0.015521859
164	0x3cb3da15	0.021954576
165	0xbcaf331e	-0.02138668
166	0xbd3d2228	-0.046175152
167	0xbb83097a	-0.0039989324
168	0xbd5c9aa2	-0.053858407
169	0xbd4efa5f	-0.05053174
170	0x3d90a311	0.070623524
171	0xbd9d3e45	-0.076778926
172	0x3c2d4641	0.010575832
173	0xbd48270b	-0.04886536
174	0x3d808724	0.06275776
175	0x3d594532	0.053044505
176	0x3cc8b6f5	0.024501303
177	0xbd4820ac	-0.048859283
178	0x3d250a2f	0.040292915
179	0x3c61ebff	0.013789176
180	0x3c848dfa	0.016180981
181	0xbd72a03e	-0.05923485
182	0xbd595c9b	-0.05306683
183	0x3d89056d	0.06690488
184	0xbbf2396b	-0.0073920987
185	0xbd72ab03	-0.05924512
186	0x3d2eb3b0	0.042651832
187	0xbcd8059f	-0.026369868
188	0xbd78a3dc	-0.060703143
189	0x3bb87643	0.0056293323
190	0xbbbca267	-0.0057566646
191	0x3c70afb3	0.014690327
192	0x3cac4962	0.021031085
193	0xbc7fe174	-0.015617717
194	0xbc024d7f	-0.007953047
195	0xbd3d3494	-0.04619272
196	0x3cf485c0	0.029848933
197	0x3d8b4e8d	0.06802092
198	0xbd033c3a	-0.03203986
199	0x3d14487d	0.036201943
200	0xbc9a6b2c	-0.018849932
201	0x3d1d756f	0.03844207
202	0x3d63510e	0.05549722
203	0xbba80b14	-0.0051282737
204	0xbd2f73f6	-0.0428352
205	0x3d711267	0.05885544
206	0x3b3bccfa	0.002865611
207	0xbd5dd76a	-0.054160513
208	0xbcf628bc	-0.03004872
209	0xbd509765	-0.05092563
210	0x3b27e1c2	0.002561674
211	0x3d339999	0.043847654
212	0xbd1cc0c2	-0.038269766
213	0xbd272fa7	-0.04081693
214	0xbd3f43db	-0.04669557
215	0x3c2686c2	0.010163965
216	0x3cf06440	0.029344678
217	0x3cecc53f	0.028902648
218	0x3b3f2133	0.0029164075
219	0xbd3a5b36	-0.04549714
220	0x3d864051	0.06555236
221	0x3c02881b	0.00796702
222	0x3d65e7ed	0.056129385
223	0x3d366a3b	0.044534903
224	0xba5331fe	-0.00080564606
225	0x3cdf7954	0.027279533
226	0xbcdaab5e	-0.026693042
227	0x3ce2cae8	0.027684644
228	0x3cbe0989	0.023197906
229	0x3ce1b371	0.027551385
230	0xbce1a51e	-0.027544554
231	0xbbd3f941	-0.0064689224
232	0xbcfda98d	-0.030964637
233	0xbdafb9ab	-0.08580335
234	0xbc2cc9ce	-0.010546161
235	0xbc0dd69a	-0.008657122
236	0x3d4c0a49	0.049814496
237	0xbd7dbf0f	-0.061949786
238	0xbd60c21a	-0.05487261
239	0xbdc41af7	-0.09575456
240	0xbd6f91d0	-0.058488667
241	0xbd00c7d0	-0.031440556
242	0x3da70f6b	0.081572376
243	0xbdc00778	-0.093764246
244	0xbbf089c9	-0.007340644
245	0xbd3cf8de	-0.046135776
246	0x3cc8cb1e	0.024510916
247	0x3d0a082f	0.03369921
248	0x3bb980fd	0.0056611286
249	0xbd114b40	-0.035472155
250	0xbcb40fec	-0.021980248
251	0x3ad8c89e	0.0016539281
252	0xbd9057f0	-0.07048023
253	0xbc025a94	-0.007956166
254	0xbd595f14	-0.05306919
255	0xbd9068af	-0.07051217

classifier.6.bias f4 [5]
0	0xbd27a29b	-0.040926557
1	0xbda34a27	-0.07973128
2	0x3dec3fac	0.11535582
3	0xbbbe6e5d	-0.005811496
4	0xbd03a57f	-0.03214025
